Modeling/energy_nn_scaled.pth (torch, 11938 bytes, 5 tensors)

0.weight f4 [64, 2]
000000 b5 f3 aa 3e e9 14 ac 3e 76 a4 27 bf eb 20 fb bd
       0.3338906 0.33609703 -0.6548532 -0.12262138
000010 2c f3 8b be 4f dd 4e be 92 d1 d2 bd 0b 8b 17 3f
       -0.27333963 -0.2020161 -0.102938786 0.5919654
000020 59 fb f9 be 2c bc 2a bf 8d 4f 80 3c ea 1e a6 be
       -0.48824576 -0.6669338 0.015662933 -0.3244546
000030 4c 2b 02 bf 0e 3f 61 be ae 7e 19 bf e0 d8 a4 3e
       -0.50847316 -0.2199671 -0.5995892 0.32196712
000040 4c 70 30 bf 2d 2c 07 bf 4d 50 e1 3e 55 15 86 3c
       -0.6892135 -0.5280178 0.44006577 0.016367594
000050 c7 b1 03 3f a3 51 be 3e 73 4a 82 3e c3 81 92 be
       0.5144314 0.3717166 0.25447425 -0.28614625
000060 3a f9 e1 bc 68 eb 29 be 52 2e 0e 3e c4 6d 87 3e
       -0.02758466 -0.16593707 0.13884857 0.26450932
000070 f7 56 38 be a8 cf bb bd 9f 80 23 3f d3 c1 15 3f
       -0.18001924 -0.09170467 0.63868135 0.5849888
000080 20 9c e4 bd 3d f0 d2 be 57 81 27 3f 0a 19 ed be
       -0.11162591 -0.41198912 0.6543173 -0.46308166
000090 48 cf 01 3f 80 a8 98 bd b2 24 6e 3e 66 91 a6 3e
       0.5070691 -0.07454014 0.23256186 0.32532805
0000a0 0e aa 2f bf 3a 25 ea 3e c8 12 1e be 65 b9 30 bf
       -0.6861886 0.45731527 -0.15436852 -0.6903289
0000b0 4f 0e 14 bf 49 34 31 bf c6 6f d0 3e 6e af a8 be
       -0.57834333 -0.69220406 0.40710276 -0.32946342
0000c0 47 e1 07 3f dd b2 f9 3e fe 12 74 bd ef 11 0d 3f
       0.5307812 0.48769274 -0.059588425 0.5510549
0000d0 6f 46 5b 3e 9a 7f 32 be 8c c2 08 3e f5 f6 24 be
       0.21413587 -0.17431489 0.13355464 -0.16109832
0000e0 8c 6d 92 bd e9 7f e0 3e 85 c1 2a bf 05 44 33 bf
       -0.07149801 0.43847588 -0.6670154 -0.70025665
0000f0 aa fa 07 bf d3 66 f4 be 49 0e e2 be 22 65 d2 be
       -0.5311686 -0.477347 -0.44151524 -0.41092783
000100 22 f6 b0 3e a9 f9 17 bd f8 7f 17 bf 6c c1 b2 bd
       0.34562784 -0.03710333 -0.5917964 -0.087282985
000110 fa 27 99 be fd 84 c4 3e f5 06 b9 3e 7a 3b 27 bf
       -0.29913312 0.38382712 0.3613812 -0.6532513
000120 c5 69 15 bf 7d fe a3 be 91 79 31 3f 81 42 25 bd
       -0.58364516 -0.32030097 0.6932612 -0.040346626
000130 24 62 18 bc 5f 04 18 bf 08 97 fb be fb bc b5 3e
       -0.009300742 -0.5938167 -0.49138665 0.35495743
000140 45 0c dc be 3a df 1d 3f 5d f9 2f 3f 48 0e 26 3f
       -0.4297811 0.6166874 0.68739873 0.6486554
000150 10 3f a6 3e 71 05 12 bf 5c ff 22 bf 48 f9 32 bf
       0.32469988 -0.5703955 -0.636709 -0.69911623
000160 c8 e7 0b bf 21 98 96 3e 8e 81 40 3e 18 31 44 3f
       -0.54650545 0.2941294 0.18799421 0.7663741
000170 10 2d 11 bf 4f 26 09 3f ac e8 bf be a7 e4 ba be
       -0.56709385 0.5357408 -0.37482202 -0.36502573
000180 24 86 da 3e e5 68 0c bf 8e 6b ed be 45 e0 17 bf
       0.42680466 -0.54847556 -0.4637112 -0.59326583
000190 bf a1 d2 bc 78 e0 19 3f 6f ad 7a 3e ee c1 93 be
       -0.025711892 0.6010814 0.24480222 -0.28858894
0001a0 88 64 7f be 2f 79 dc be ec 0b 9d be 62 ed b9 3d
       -0.24940693 -0.43061206 -0.30673158 0.0907848
0001b0 78 6a b1 3e 36 f2 20 bf 88 2e e7 be ad 6d 85 be
       0.34651542 -0.62869585 -0.45152688 -0.26060238
0001c0 dc a0 3b 3f c2 be 2e 3f 0c 27 08 be 29 cd 2e bf
       0.73292327 0.68259823 -0.13296145 -0.682818
0001d0 37 ad a8 3e de 12 11 3f d3 1a 0a 3e 69 94 a9 bc
       0.32944652 0.56669414 0.13486795 -0.02070065
0001e0 85 e3 f8 3e 12 9c 15 bf c3 22 eb be 1f 0e 39 3f
       0.48611084 -0.5844127 -0.4592496 0.7228717
0001f0 44 fa 1d bf 60 85 b7 3e 21 6d 82 be cf bc e4 3e
       -0.6171 0.35843945 -0.25473884 0.446753

0.bias f4 [64]
000000 1f 86 a8 be aa 72 14 3f b8 d7 3b 3e 19 6e ab 3e
       -0.32914826 0.57987463 0.18344009 0.33482435
000010 3e 57 11 be 7c 10 f0 bd c5 01 fb be c1 5a a6 be
       -0.14193437 -0.11721894 -0.49024788 -0.32491115
000020 c2 e5 19 bf 3d c1 38 be 97 fa 97 3e 6a 52 d2 3e
       -0.6011621 -0.18042465 0.29683372 0.41078502
000030 cc 77 f2 3e 35 dd 34 bf 89 25 0f 3f 29 72 37 bd
       0.47357023 -0.70650035 0.5591665 -0.044786606
000040 82 a8 26 3e 93 48 9a be 9a 47 f3 3d de 38 0c 3e
       0.16275218 -0.30133495 0.11878891 0.13693568
000050 8e ae 65 3e 7b 0b 52 be da 8d f9 be 36 d0 31 be
       0.22429869 -0.20512192 -0.48741037 -0.17364582
000060 63 dd 86 bd 06 84 1b bf 4c db 32 bf 3b 7b b7 be
       -0.06585195 -0.60748327 -0.6986587 -0.35836205
000070 a2 6c fb 3d 2e 4c a5 be d0 fe 20 3f f0 04 67 3e
       0.122765794 -0.32284683 0.62888813 0.22560477
000080 fc e5 df 3d 22 f6 b7 3d d6 e9 af bd bb 0f f4 3e
       0.10932538 0.08982493 -0.085895225 0.4766825
000090 33 e5 b3 bd 3a c2 1b 3a 48 c8 16 bf 0c 35 21 be
       -0.08783951 0.0005941723 -0.58899355 -0.15742892
0000a0 29 7b aa be 58 d4 26 bf 3d 7e c5 3e a1 b8 ca 3e
       -0.3329709 -0.6516776 0.38572875 0.39593986
0000b0 1b 48 a7 3e 3d 70 15 bf 2f 17 f7 be 2b a3 e5 be
       0.326722 -0.5837439 -0.48259875 -0.4485105
0000c0 00 07 c3 be 09 bd ae be 30 bb bf 3e 14 9f 58 be
       -0.38091278 -0.34128597 0.374475 -0.21154433
0000d0 b4 d5 a8 3d df 5b c2 3e 2e ef e8 be 1a 87 c7 be
       0.08243886 0.37960717 -0.4549498 -0.38970262
0000e0 ef 1c fd bd 80 b4 62 be 96 4f 0f 3f c3 de de bd
       -0.12359034 -0.22139168 0.55980814 -0.10882332
0000f0 5c 6a e3 be 90 fd 61 bd 21 80 a9 3e c5 74 20 bf
       -0.44417083 -0.055173457 0.33105567 -0.62678176

2.weight f4 [32, 64]
000000 d6 0c c0 3d b4 1e 53 3c 79 9c 57 bc 0d dd 3c bd
       0.09377448 0.012885738 -0.013159865 -0.046109248
000010 1d 82 9f bd a8 0e bc 3c 6c 1c 9f bd 90 5b 69 bd
       -0.07788489 0.022956207 -0.07769093 -0.056972086
000020 1f 4b 45 bd a0 af 5b 3c a5 e4 24 3d 21 4e 08 bd
       -0.048167344 0.0134085715 0.040257115 -0.033277635
000030 38 2e 1b 3d 7c 6f 9c 3d b5 a5 73 3d b1 fe c6 3c
       0.037885875 0.076384515 0.059484202 0.024291368
000040 46 71 60 3d 76 1b 84 bd 98 ab 94 bd 7c 19 76 bc
       0.054795526 -0.0645055 -0.072592914 -0.015020724
000050 82 c5 c0 3c ec c5 b6 bd ab ba ae 3d a8 ab 63 3d
       0.023531679 -0.08924469 0.08531698 0.055583626
000060 ff 93 7d 3c df 45 8c bc 94 33 fc bd f8 68 11 3d
       0.01547718 -0.01712316 -0.12314525 0.035500497
000070 14 e4 2b 3e 81 d0 c9 bd a4 7b 64 bc 3d 52 b0 bd
       0.16786224 -0.09854222 -0.013945494 -0.08609436
000080 13 d1 af bd 5e 44 02 be 6d e9 47 3d e1 52 fb bd
       -0.085847996 -0.12721393 0.048806597 -0.12271667
000090 60 ab 5e bd e6 5e fb bc 0a e2 e6 3d b9 af 75 bd
       -0.054362655 -0.0306849 0.11273582 -0.059982035
0000a0 d1 23 a9 3d e6 b5 20 bd 7d ae 8e 3d 86 36 2a bd
       0.082587846 -0.039235972 0.06966875 -0.041555904
0000b0 af 2c 1f 3d 63 f2 20 3e a8 3d 92 3d 29 b7 03 3d
       0.038860973 0.15717463 0.07140666 0.032157097
0000c0 19 4b a3 bc 67 a9 80 3d 74 17 b1 3d f2 ac 7a bd
       -0.01993327 0.06282311 0.086470515 -0.06120009
0000d0 cc e6 ec 3b 20 33 42 3d ca cb 90 bd 40 ca cb bc
       0.0072296616 0.047412038 -0.0707012 -0.024876714
0000e0 a7 8a ae bb 66 07 a9 bc 4e 17 ee bc 44 25 41 ba
       -0.0053265872 -0.02063341 -0.029063847 -0.0007367919
0000f0 23 e8 9b bd 69 c0 cd 3c ad 85 a3 3c 85 ec c7 bd
       -0.07612636 0.025116162 0.019961203 -0.097619094
000100 07 d7 ab 3c af c7 ea 3c 6b 59 d3 bd f3 b8 93 bc
       0.020976556 0.02865967 -0.103197895 -0.018032527
000110 2d 33 03 be 58 da 3e bc 17 5d af bd 75 cd 07 3d
       -0.12812491 -0.011648737 -0.08562677 0.033154923
000120 2a 61 00 bc 3e c5 1d 3e 9f e6 4b bb 35 27 4a 3c
       -0.007835666 0.15407273 -0.0031112803 0.012338449
000130 f9 29 29 3d d8 d3 a8 3d 50 04 81 3d 29 5d 29 3e
       0.041299794 0.08243531 0.06299651 0.16539444
000140 ed f0 8c bd 7b b4 85 3d a3 04 81 3d 3c 27 8f 3d
       -0.068818904 0.065285645 0.062997125 0.06989905
000150 2a 86 cb 3d e9 a6 b5 bd 23 df 99 bd 43 6c fa bd
       0.09937699 -0.08869726 -0.07513263 -0.122276805
000160 89 5c 56 3d 2c 5a d3 3a e4 cf ac 3d 58 d3 16 bd
       0.052334342 0.0016124896 0.084380895 -0.036822647
000170 16 0e 21 3e 57 f6 d7 bd d6 10 8b bc 00 51 c8 bd
       0.1572803 -0.105450325 -0.016975801 -0.097810745
000180 ae 93 0a 3e 0e 48 29 bc d8 d5 69 bc a5 63 c6 bc
       0.13532898 -0.010332121 -0.014272176 -0.024217436
000190 20 1f 63 bc c4 0e f8 3d f2 21 91 3d 1c 29 43 bc
       -0.013862401 0.12112191 0.07086553 -0.011911657
0001a0 7a a2 a7 3d a0 72 59 bd 85 cb e0 bd f0 af 14 be
       0.08185287 -0.05308783 -0.10976318 -0.1452024
0001b0 e3 01 cb bc 51 b7 4d 3d 48 62 54 3d 6b 9f b9 bd
       -0.024781173 0.050223652 0.05185154 -0.0906361
0001c0 5a 18 da bc 72 71 e0 bc 92 3f 89 3d 4a 6e 60 bc
       -0.02662294 -0.027397845 0.06701578 -0.01369817
0001d0 30 45 97 bb 97 85 36 3d bd b5 06 be 5b 83 9e bd
       -0.004616402 0.044560995 -0.13155265 -0.07739898
0001e0 35 fd f2 3d 3a 83 3d 3d 12 a0 70 3d f2 cd bd 3a
       0.11864702 0.046267726 0.058746405 0.0014480932
0001f0 54 59 0c bd 6e 61 12 3e bc 48 96 bc d2 a0 73 bd
       -0.034264877 0.14294979 -0.01834523 -0.059479542
000200 da c6 d6 bd d3 f2 05 3e 51 c9 a2 bd c3 03 3d bd
       -0.10487147 0.13080911 -0.07948554 -0.046146166
000210 b1 6c 97 bd c9 1f 43 3d 8e 54 9f bd 49 ad 88 3c
       -0.07393778 0.047637735 -0.077797994 0.016684191
000220 ca 60 61 bd 43 5f b3 bd 67 f1 15 be a0 78 35 3c
       -0.055023946 -0.08758404 -0.14642869 0.0110761225
000230 ac 6a b7 bc 58 21 14 3d ad 6a ae 3d 74 2b 8f bd
       -0.022389732 0.03616461 0.085164405 -0.0699071
000240 70 17 ad bc de c1 ee bd a2 cb 81 3c 6e 1d ad bd
       -0.02112934 -0.11658071 0.01584417 -0.08452879
000250 e6 c5 db bc 88 9d 0a bc d4 09 42 3d f1 a2 03 3c
       -0.026827764 -0.00846041 0.047372654 0.008034454
000260 87 94 a4 3c 58 9d 08 3c d2 ef 91 bd 47 25 47 3c
       0.020090355 0.008338295 -0.0712582 0.012154884
000270 3c 49 32 3c 87 2b 0b 3c 4f c6 3f bd 64 e9 08 3e
       0.010881718 0.008494264 -0.04681998 0.13370281
000280 8e 99 ff 3c 5e f8 c2 3d c2 3f 96 bd 3e 11 6d 3d
       0.03120115 0.095200285 -0.073363796 0.05787777
000290 6b 39 ba bc e2 9d 31 3d 93 b7 3f 3a c7 06 f1 3d
       -0.022732457 0.04336346 0.00073134265 0.11768871
0002a0 11 cc e9 bc 0f 2f b4 3d 8d d6 5a bd 48 de 93 3d
       -0.02853969 0.08798038 -0.053427268 0.07220131
0002b0 37 7b ed bb 80 f8 cf bc a8 3a b2 bb 42 c6 9b bd
       -0.0072473544 -0.025387049 -0.0054391213 -0.07606174
0002c0 0b d5 72 bd 7f 95 13 bd 06 85 57 3d 56 50 ce bd
       -0.059285205 -0.036031242 0.052617095 -0.100739166
0002d0 66 92 d2 3d 2a 60 50 3d 9d f9 a7 bd 87 14 41 3d
       0.102818295 0.05087296 -0.08201907 0.047138717
0002e0 4c 4e d9 bc a2 3f 85 bd d6 36 ac 3d b0 d6 fd bc
       -0.026526593 -0.065062776 0.084088966 -0.03098616
0002f0 84 0b 97 bd 00 1c 0d 3d bc fc 90 3d a7 31 51 bd
       -0.07375243 0.03445053 0.07079455 -0.051072743
000300 83 81 74 bd 8e bd b8 3d 9d 54 a0 3d 82 67 e0 bc
       -0.059693824 0.0902053 0.07828639 -0.027393106
000310 4b 5b 17 be 71 e1 4b bd 6b cc 19 bd e7 3e f4 3c
       -0.14780919 -0.049775545 -0.037548464 0.02981515
000320 0f 47 4e bd 3f 83 03 3e c5 ef 0e 3e 3b c8 8b bd
       -0.050360736 0.12843035 0.13958652 -0.068253
000330 c8 ec 12 3c 98 14 d9 bd de cf 7b 3d 1f 55 fc 3c
       0.008967586 -0.10599631 0.061477534 0.030802308
000340 7e f2 18 3d 4c 1e 82 3d fa aa 1b 3e 21 d7 87 3d
       0.037340634 0.06353435 0.15201941 0.066328295
000350 8c 74 bb 3d 50 50 ad bd 16 f1 ae bd b7 41 78 bd
       0.09153089 -0.08462584 -0.08542077 -0.060609546
000360 c7 c9 f1 3d e3 42 27 3e 38 ec ab bc 6c e9 08 bd
       0.11806064 0.16334109 -0.020986661 -0.033425733
000370 ff 88 66 3d 3f f7 52 3d 45 0f 4f bd 85 76 a8 bd
       0.056282993 0.051505323 -0.05055167 -0.08225731
000380 24 ce c7 3d 3c 1d ab bd 81 aa 1e 3d 5a 46 48 3c
       0.09756115 -0.083551854 0.038736824 0.012223804
000390 aa cb d2 bd bd 39 97 bd fb 45 b0 bd 09 b4 9e bc
       -0.10292752 -0.073840596 -0.08607098 -0.019372957
0003a0 3a 8b c7 3c 4a c3 0a bd 9b e0 a3 bd a0 90 b0 bd
       0.02435838 -0.03387765 -0.080018245 -0.08621335
0003b0 ce 48 b3 3d eb 56 95 3d 7b ed ac 3b e5 ad 4c bd
       0.08754121 0.07291969 0.0052773333 -0.049970526
0003c0 8d 08 2b bd 6e 76 8b 3d f6 b4 2b 3d e1 44 b4 bd
       -0.0417562 0.06809698 0.041920625 -0.088022
0003d0 61 41 48 bd 54 f4 cc 3d a7 a8 2d be e6 7c 3e 3d
       -0.048890475 0.100075394 -0.16958867 0.04650583
0003e0 5a 2f e0 3d 88 60 61 bd 2a 98 26 3e c2 7e d6 3b
       0.109465316 -0.0550237 0.16268983 0.0065458724
0003f0 3c 07 9f bd 92 62 04 3e 9c 86 0a 3e 6c da b6 bd
       -0.07765052 0.12928227 0.13527912 -0.089283794

2.bias f4 [32]
000000 83 8c d6 3d 54 32 96 bd 4a a4 c2 bd 26 bb df 3c
       0.10476019 -0.07333818 -0.09503992 0.027310919
000010 ba d0 8b bd d0 f0 c1 3d 61 dc f8 3d 91 9d 2a 3e
       -0.06826921 0.094697595 0.12151409 0.1666167
000020 22 46 18 3d 43 70 e9 bb 7c 28 13 3d 4e 67 34 bc
       0.03717626 -0.0071239783 0.03592728 -0.011010958
000030 62 12 60 3d 48 98 b8 3c 6b 80 b1 3c ad 93 34 3d
       0.05470503 0.02253355 0.02166768 0.044086147
000040 2b bf 97 bd 5b 89 f3 ba e4 56 cc 3d 16 8f 04 3c
       -0.07409509 -0.0018580364 0.099775106 0.008090755
000050 f2 7e e4 3c c8 5b 2b 3d bc 56 ae bd 1e 12 85 3d
       0.027892563 0.041835576 -0.08512637 0.06497596
000060 8e b4 4b bd 29 07 b8 3d d2 2e 97 3d 82 2b 97 3b
       -0.049732737 0.08985741 0.07381977 0.004613341
000070 34 38 16 3e e0 54 89 3d ef a1 ca 3d 96 31 f5 bd
       0.14669877 0.06705642 0.09894168 -0.119723484

4.weight f4 [1, 32]
000000 3f 54 2a 3e 3d ed 73 3d 80 45 cb bd 7a 0a 60 3e
       0.166337 0.05955242 -0.099253654 0.21878996
000010 9b 07 c0 bd d6 4f 13 bc 47 eb 28 3e 2d cb 0d 3e
       -0.09376451 -0.008991202 0.16496001 0.13847037
000020 21 52 1c be 09 1a e5 3d 23 06 30 be 89 02 10 3e
       -0.15265705 0.111866064 -0.17189841 0.14063467
000030 f1 94 2e be 7a fa 0b be 8a 14 10 be 2e ed c5 bd
       -0.17049004 -0.13669768 -0.14070335 -0.09664379
000040 e5 f1 82 bd dd e4 c3 3d de 01 bc 3d 2c fd cd 3d
       -0.06393794 0.095651366 0.09180044 0.10058054
000050 e4 ba 97 bd f4 4d 18 bd 75 e0 31 be 9d fa 39 3e
       -0.074086934 -0.037183717 -0.1737078 0.18162008
000060 53 ed e3 bc c5 9c 6e 3d c5 4d 1c 3e 2f bd 1b be
       -0.027823126 0.058254976 0.15264042 -0.15208887
000070 39 71 47 3e e2 a3 eb 3d 56 5c f3 bd 00 36 4e bd
       0.19476785 0.115058675 -0.11882846 -0.050344467
